LeNet.pth (torch_old, 269411 bytes, 10 tensors)

weight f4 [6, 3, 5, 5]
-0.021536672 -0.005786861 0.07953078 -0.09499026 -0.12629892 -0.0015025159 0.03715049 0.05853632
0.06337906 -0.047860097 0.043728154 0.09503239 -0.17294249 -0.12970501 0.0008676056 -0.09379504
-0.13969915 -0.01654303 -0.007132343 0.09195903 0.030301431 -0.11877684 0.03775612 0.12356425
-0.06571931 0.10078277 0.10478158 0.082771644 0.152256 -0.05765201 0.110497 0.08386298
0.18842167 0.113909 -0.07623126 0.13415161 0.1474444 -0.031216115 -0.081542745 0.014141118
-0.046865165 0.08251705 0.14772624 0.11829007 0.1697754 0.14377159 -0.0050597535 0.100912265
0.06357141 -0.019985532 -0.13433291 -0.20618457 0.10576988 0.034317844 -0.08576429 -0.13068226
-0.084381364 0.07886489 0.057659134 -0.18621883 -0.025811015 0.060203962 -0.1344672 -0.18039304
0.0065269996 -0.0351959 -0.2058558 -0.1851178 0.0073801214 0.016346365 -0.07586428 -0.13045758
0.051569123 0.079421885 -0.17483264 -0.18154512 -0.08924478 0.06314247 0.12810543 0.00690654
0.06208048 -0.044051114 -0.00030384125 0.09584286 -0.037500888 -0.09112616 -0.24033308 -0.10297331
-0.31833258 -0.30477348 -0.023111226 -0.26148212 -0.20474029 -0.25355318 -0.17939968 0.09453441
-0.09927147 -0.015734075 0.11067301 0.14770314 -0.021104425 0.11865524 0.043880798 0.1269308
0.0046407375 0.14121309 0.18226941 0.1087106 0.15077835 -0.08434049 0.051723603 -0.055431876
-0.1890935 -0.2706952 -0.024226494 -0.021310851 -0.0074286116 -0.099152446 -0.029254084 0.08471242
0.12093268 -0.034327216 0.108098954 0.08022361 0.09474956 0.07761301 -0.07144177 0.0056049274
0.1731944 0.012971789 0.12279817 0.0855143 0.1832129 0.1896405 -0.10653478 0.11190559
0.09393217 -0.13025813 -0.13755369 -0.16066436 -0.11609791 -0.108100496 -0.11170954 0.010580734
-0.08655442 0.11852602 0.025774973 0.12414692 0.09503271 0.2052895 -0.0050642355 -0.005241705
-0.0018287725 0.09338926 -0.026742304 0.030538712 -0.06465645 0.087868944 -0.0070390753 -0.08662081
0.07221654 0.13630345 0.07286753 0.09522829 0.056666918 -0.12740521 0.04405329 0.06767393
0.0749266 -0.047215395 -0.060606305 -0.09776124 -0.15143538 -0.08598708 -0.09234429 -0.12561083
-0.080121525 -0.038594916 0.020793237 -0.13847414 -0.14588167 0.020433094 0.10276582 0.056897685
0.030178083 -0.022960663 0.08720073 0.101226725 0.08241856 0.028503964 0.03045262 0.010520337
-0.044084057 -0.13977417 0.05175988 -0.22420989 -0.06547296 -0.19000843 -0.07101845 -0.070177265
0.14125162 0.019324398 0.13809407 -0.049025185 0.0020507476 0.15051585 0.17841567 0.1747396
0.045845177 0.0150228655 0.10243382 0.08775516 0.16497706 0.18527925 0.044671588 0.029564038
0.09830209 0.07587455 0.16809201 0.11166249 -0.07353629 -0.17686674 -0.10469946 -0.11170507
-0.059789535 0.16005534 -0.017900439 0.039489493 -0.025157 0.103057176 0.11738728 0.16737872
0.18543088 0.17061937 0.011784596 0.21423595 0.017506199 0.14245723 0.14355102 0.12273632
0.06692951 0.11980997 0.08908621 0.11506261 0.1337218 0.049817394 -0.13967922 -0.09525416
0.16001064 0.069109604 -0.074786976 -0.12181221 -0.04675761 0.014206569 -0.041790426 -0.041213505
00000000: ad6d b0bc b59f bdbb 09e1 a23d 418a c2bd
00000010: 8154 01be 11f0 c4ba 1d2b 183d c8c3 6f3d
00000020: e1cc 813d f308 44bd 4b1c 333d 57a0 c23d
00000030: d617 31be 64d1 04be 0770 633a 9d17 c0bd
00000040: 4b0d 0fbe 4085 87bc 6eb6 e9bb 0455 bc3d
00000050: b53a f83c 4641 f3bd 29a6 1a3d 410f fd3d
00000060: d897 86bd 3267 ce3d ba97 d63d 2e84 a93d
00000070: ffe8 1b3e 8424 6cbd 404c e23d 5bc0 ab3d
00000080: 9cf1 403e 1f49 e93d 231f 9cbd 0a5f 093e
00000090: aafb 163e f0b8 ffbc e2ff a6bd 26b0 673c
000000a0: b0f5 3fbd b3fe a83d 8c45 173e 1042 f23d
000000b0: 9ad9 2d3e dc38 133e 4acc a5bb 17ab ce3d
000000c0: ba31 823d b3b8 a3bc 918e 09be 0c22 53be
000000d0: e19d d83d de90 0c3d 30a5 afbd 92d1 05be
000000e0: 23d0 acbd ea83 a13d fc2b 6c3d 26b0 3ebe
000000f0: 9f71 d3bc 6e98 763d c5b1 09be f4b8 38be
00000100: 71e0 d53b 9329 10bd ddcb 52be 858f 3dbe
00000110: f2d4 f13b d0e8 853c bb5e 9bbd ac96 05be
00000120: 253a 533d f1a7 a23d 5407 33be f7e6 39be
00000130: f8c5 b6bd d750 813d 122e 033e 4250 e23b
00000140: 1a48 7e3d f16e 34bd e24c 9fb9 4349 c43d
00000150: 889a 19bd 5aa0 babd e019 76be ace3 d2bd
00000160: 7dfc a2be 450b 9cbe c153 bdbc fce0 85be
00000170: 70a7 51be b9d1 81be 8db4 37be 429b c13d
00000180: d74e cbbd bfe4 80bc 88a8 e23d 7e3f 173e
00000190: 30e3 acbc 8501 f33d 5abc 333d 26fa 013e
000001a0: 5411 983b 2a9a 103e d5a4 3a3e aaa3 de3d
000001b0: a465 1a3e b5ba acbd 21dc 533d 890c 63bd
000001c0: baa1 41be 9098 8abe a476 c6bc 1894 aebc
000001d0: b66b f3bb 7010 cbbd 43a6 efbc b57d ad3d
000001e0: 8eab f73d b29a 0cbd fc62 dd3d 474c a43d
000001f0: 0f0c c23d 92f3 9e3d 1050 92bd 8aa9 b73b
00000200: df59 313e a087 543c 9b7d fb3d 1f22 af3d
00000210: 2a9c 3b3e 1f31 423e e82e dabd c22e e53d
00000220: 825f c03d 6362 05be e0da 0cbe 3385 24be
00000230: bec4 edbd cb63 ddbd f9c7 e4bd d15a 2d3c
00000240: 7243 b1bd c5bd f23d 0926 d33c be40 fe3d
00000250: 82a0 c23d 6937 523e e3f1 a5bb 9cc2 abbb
00000260: 6cb3 efba de42 bf3d ad12 dbbc 522c fa3c
00000270: 9a6a 84bd a2f4 b33d 0ba8 e6bb 4066 b1bd
00000280: 44e6 933d 2293 0b3e 923b 953d 0d07 c33d
00000290: 921b 683d 8376 02be 3971 343d a198 8a3d
000002a0: 1e73 993d ee64 41bd 513e 78bd 0c37 c8bd
000002b0: e011 1bbe ff19 b0bd 011f bdbd 20a0 00be
000002c0: c116 a4bd b415 1ebd 9456 aa3c 2acc 0dbe
000002d0: 0162 15be 4e63 a73c e376 d23d 8c0d 693d
000002e0: 0738 f73c 0018 bcbc 4c96 b23d f54f cf3d
000002f0: 10cb a83d 2581 e93c c677 f93c 7e5d 2c3c
00000300: 7c91 34bd f620 0fbe 2b02 543d 4797 65be
00000310: b016 86bd 9291 42be 1f72 91bd 19b9 8fbd
00000320: 44a4 103e 334e 9e3c 8868 0d3e a2ce 48bd
00000330: d665 063b d420 1a3e 99b2 363e f0ee 323e
00000340: 27c8 3b3d 7722 763c d3c8 d13d fab8 b33d
00000350: bfef 283e d8b9 3d3e 8ef9 363d 4830 f23c
00000360: 9b52 c93d 1e64 9b3d 5020 2c3e 4eaf e43d
00000370: 329a 96bd 8e1c 35be ac6c d6bd a1c5 e4bd
00000380: dfe5 74bd 8ce5 233e f1a3 92bc bcbf 213d
00000390: 0e16 cebc a40f d33d be68 f03d 5465 2b3e
000003a0: 98e1 3d3e d8b6 2e3e 2e14 413c ab60 5b3e
000003b0: 2969 8f3c 4fe0 113e 0aff 123e 2e5d fb3d
000003c0: 5712 893d ee5e f53d d572 b63d f2a5 eb3d
000003d0: 5eee 083e 530d 4c3d 1208 0fbe 9d14 c3bd
000003e0: d4d9 233e 5689 8d3d ea29 99bd ae78 f9bd
000003f0: e884 3fbd abc2 683c 702c 2bbd 7ecf 28bd

bias f4 [6]
0.039757952 0.095275715 -0.30572593 -0.016099101 -0.24397075 0.08221826
00000000: 3cd9 223d ea1f c33d 1c88 9cbe 43e2 83bc
00000010: 78d3 79be 0c62 a83d

weight f4 [16, 6, 5, 5]
-0.039729137 -0.117981434 -0.17569633 -0.06682979 -0.11718651 0.038428087 -0.04739751 -0.11703101
-0.124405175 -0.057109237 -0.0008015552 -0.03293048 0.0076458068 -0.03880165 -0.16034652 -0.08922588
0.04940944 0.047300875 -0.04301674 -0.15646736 -0.05140708 0.0392814 0.032311093 -0.05968333
-0.027479166 -0.0323437 -0.08120161 -0.08317325 0.07432837 0.10252497 0.062245842 -0.10163725
-0.018650515 0.05881952 0.06936495 -0.01213528 -0.11070469 0.05215914 -0.017596956 -0.011159775
-0.021465803 0.0070961136 0.021187821 0.008099055 0.072233476 -0.016975436 -0.010410012 0.07193107
-0.021593018 0.033461902 -0.06438368 -0.0936278 0.005542585 0.06475027 -0.011635859 -0.0797289
-0.005983257 -0.017933523 0.03200449 0.035595924 -0.14079899 0.06651845 -0.0033811063 0.052610703
-0.046572257 -0.16579165 0.1682786 -0.07508601 -0.017870814 -0.03216856 -0.03499215 0.18324539
-0.053748388 0.03318964 0.009607245 0.07198198 0.11492344 0.0578087 -0.032389726 0.026891652
0.07233502 0.07513485 -0.127051 0.04844708 0.038760755 0.14291628 -0.13731617 0.000100316975
0.0024018981 0.054978125 0.1321608 -0.20262578 0.0025720906 -0.019465508 0.15856357 0.079274416
-0.2634103 0.021758107 -0.016332313 0.06000392 0.07386361 -0.11691144 0.030159725 0.042301774
-0.06679476 0.17041141 -0.082687795 0.12456211 -0.01229709 -0.02643701 0.21976809 0.04934551
0.07139558 -0.13235721 -0.08064871 -0.09378694 0.28993025 -0.023346262 -0.0069966926 -0.09271902
-0.02507188 0.31643188 -0.08004535 0.12634481 0.06735415 -0.18505956 0.034335587 0.040210675
-0.07031381 -0.08912915 -0.2617956 0.35120732 0.009754929 -0.11574706 -0.041941486 -0.39310163
0.67745197 -0.18676731 0.011162648 0.017081186 -0.2527315 0.8110969 -0.31785625 0.14356287
0.053107902 -0.098902814 0.5031226 -0.41638264 0.11837653 -0.041366726 0.0632493 0.07862411
0.032954775 0.054167192 -0.03798108 -0.040697586 0.005922603 -0.020983439 -0.08735836 -0.028766941
-0.07055903 -0.113814875 -0.09962875 -0.015227201 -0.005747635 -0.017825576 -0.10991267 -0.049020167
-0.045475412 -0.021698782 -0.066188894 -0.1744153 -0.01962693 -0.092937574 -0.12411837 0.056753457
-0.017705068 0.066160575 -0.01368913 0.12652594 0.093847275 0.047476057 -0.1488931 -0.16450326
-0.0058755674 6.173581e-05 -0.06262731 -0.23501225 -0.096628554 0.014508882 0.11144512 0.049547393
-0.07750818 -0.063354574 0.2174056 0.006059251 0.009714865 0.15944605 0.26852435 0.4026717
0.030905496 -0.021886662 0.0593899 0.11064352 0.026899466 0.08427213 0.013696884 0.009966546
-0.061465897 0.07434269 -0.0015988828 -0.044840075 -0.14972459 -0.09960539 -0.038922567 0.099246725
-0.04733218 -0.07287709 -0.14304553 -0.12117853 0.24593006 0.10054569 0.10232119 0.0156756
-0.057588413 -0.15360855 -0.03647031 -0.104542024 -0.18126279 -0.24137309 -0.011332899 0.06804711
0.21719396 0.18301441 -0.018404003 -0.036057416 0.10540511 0.2287059 0.3076408 0.14566141
0.05645645 0.14054853 0.34290293 0.25954315 0.07776802 0.058012396 0.08238932 0.20880185
-0.003352883 -0.021263894 0.0147807095 0.011917986 0.10457555 0.06329573 0.007844921 0.07335832
00000000: 05bb 22bd 40a0 f1bd bde9 33be 0fde 88bd
00000010: 7bff efbd c566 1d3d e423 42bd f4ad efbd
00000020: 24c8 febd 60eb 69bd 751f 52ba 1ce2 06bd
00000030: ad89 fa3b 7bee 1ebd e131 24be 0fbc b6bd
00000040: 8e61 4a3d 90be 413d 5232 30bd fb38 20be
00000050: 3b90 52bd 89e5 203d a358 043d 8276 74bd
00000060: fd1b e1bc d47a 04bd 084d a6bd bd56 aabd
00000070: 7939 983d 9df8 d13d 7ff5 7e3d 3127 d0bd
00000080: f7c8 98bc bdec 703d 360f 8e3d 0ed3 46bc
00000090: 24b9 e2bd d3a4 553d 7e27 90bc 7dd7 36bc
000000a0: 0dd9 afbc 8486 e83b 1592 ad3c e6b1 043c
000000b0: 25ef 933d 1210 8bbc c18e 2abc 9950 933d
000000c0: d7e3 b0bc 590f 093d 97db 83bd efbf bfbd
000000d0: 939e b53b ca9b 843d 54a4 3ebc e848 a3bd
000000e0: 330f c4bb 53e9 92bc 2417 033d 08cd 113d
000000f0: 9c2d 10be d33a 883d 8d95 5dbb 527e 573d
00000100: 8dc2 3ebd 49c5 29be 3a51 2c3e b2c6 99bd
00000110: d065 92bc 2ec3 03bd ee53 0fbd aea4 3b3e
00000120: 4527 5cbd dcf1 073d b567 1d3c 4a6b 933d
00000130: fb5c eb3d d1c8 6c3d 17ab 04bd e24b dc3c
00000140: 6224 943d 4de0 993d a819 02be 7270 463d
00000150: 99c3 1e3d a558 123e 9c9c 0cbe 4461 d238
00000160: 2a69 1d3b be30 613d 2955 073e 227d 4fbe
00000170: 8590 283b 2176 9fbc 7d5e 223e a05a a23d
00000180: b7dd 86be 0f3e b23c 58cb 85bc acc6 753d
00000190: ce45 973d 446f efbd 8711 f73c a044 2d3d
000001a0: b1cb 88bd 5480 2e3e 3858 a9bd 6b1a ff3d
000001b0: bc79 49bc 6e92 d8bc e30a 613e 841e 4a3d
000001c0: d937 923d a688 07be 272b a5bd 5e13 c0bd
000001d0: bd71 943e a940 bfbc 8344 e5bb 78e3 bdbd
000001e0: 8b63 cdbc 5c03 a23e d1ee a3bd 8960 013e
000001f0: f9f0 893d 4180 3dbe 79a3 0c3d f3b3 243d
00000200: b000 90bd 5889 b6bd 130a 86be 72d1 b33e
00000210: 23d3 1f3c cb0c edbd d6ca 2bbd 9e44 c9be
00000220: 7e6d 2d3f ee3f 3fbe 8ae3 363c d8ed 8b3c
00000230: 0666 81be 0ca4 4f3f 0ebe a2be 2502 133e
00000240: ac87 593d 8f8d cabd a5cc 003f 1b30 d5be
00000250: 656f f23d 2870 29bd d988 813d ad05 a13d
00000260: 96fb 063d 6bde 5d3d 0d92 1bbd 83b2 26bd
00000270: 6512 c23b 76e5 abbc f1e8 b2bd a6a8 ebbc
00000280: 4181 90bd c617 e9bd 280a ccbd 837b 79bc
00000290: a856 bcbb f106 92bc e519 e1bd 5fc9 48bd
000002a0: 6d44 3abd a5c1 b1bc 0b8e 87bd ed99 32be
000002b0: a8c8 a0bc 0e56 bebd c631 febd 5076 683d
000002c0: 380a 91bc 327f 873d 5f48 60bc 0490 013e
000002d0: 0033 c03d 4176 423d 6f77 18be 8b73 28be
000002e0: d587 c0bb 2978 8138 bf42 80bd 0da7 70be
000002f0: 31e5 c5bd a9b6 6d3c 573d e43d 35f2 4a3d
00000300: 9cbc 9ebd 0bc0 81bd 939f 5e3e ae8c c63b
00000310: 192b 1f3c d345 233e 067c 893e fc2a ce3e
00000320: 862d fd3c a84b b3bc d342 733d 1299 e23d
00000330: 455c dc3c de96 ac3d e568 603c b94a 233c
00000340: aac3 7bbd fb40 983d 9b91 d1ba 3aaa 37bd
00000350: 6751 19be e9fd cbbd 456d 1fbd de41 cb3d
00000360: 63df 41bd 9540 95bd 877a 12be 732c f8bd
00000370: 17d5 7b3e e6ea cd3d c68d d13d 1e6a 803c
00000380: d4e1 6bbd 8f4b 1dbe e461 15bd 211a d6bd
00000390: f49c 39be 822a 77be a0ad 39bc 495c 8b3d
000003a0: 1868 5e3e 2168 3b3e fec3 96bc f1b0 13bd
000003b0: a2de d73d e131 6a3e 1883 9d3e 4428 153e
000003c0: e13e 673d f4eb 0f3e f990 af3e d7e2 843e
000003d0: d744 9f3d 689e 6d3d bbbb a83d 27d0 553e
000003e0: 0bbc 5bbb 9e31 aebc ca2a 723c a843 433c
000003f0: b52b d63d 31a1 813d fc87 003c e33c 963d

bias f4 [16]
-0.1193493 -0.06043094 0.12413906 -0.23566814 -0.16857448 -0.08598253 -0.11709065 -0.24328363
-0.11439035 -0.095410965 -0.21020348 -0.15091527 -0.0918808 0.0004445579 -0.12943093 -0.25296065
00000000: 686d f4bd 6f86 77bd 9f3c fe3d fd52 71be
00000010: ca9e 2cbe 9c17 b0bd 39cd efbd 581f 79be
00000020: 7d45 eabd d366 c3bd 953f 57be 8889 1abe
00000030: 002c bcbd 8d13 e939 8b89 04be 0f84 81be

weight f4 [120, 400]
0.02853075 0.024411403 0.09248583 -0.05991983 0.12475875 0.12178502 0.0465009 0.08607837
-0.020770775 0.02542445 -0.11960893 0.059903316 0.0044177007 0.050531223 -0.06922741 -0.26475406
-0.04356968 0.113764465 0.056000467 0.07713781 -0.114491425 0.0034552629 0.003582818 -0.15661687
0.20159528 -0.020522695 0.026801897 -0.04348247 -0.08301541 -0.065813914 -0.090483025 -0.07871217
-0.04319022 -0.090450935 0.13006867 -0.16549385 -0.1429658 -0.026151475 0.08262522 0.12465671
0.020931058 -0.1467265 -0.11397386 -0.1444139 0.14596587 0.07308156 -0.100562334 -0.15080865
-0.05865066 0.24315457 -0.083555214 0.1494444 -0.15377885 0.024507198 -0.13704127 0.01932079
-0.002291904 0.053981997 0.04065269 -0.057653747 0.09968045 0.1281237 -0.0026967097 0.15928654
-0.172962 0.13719688 -0.09142629 0.18786386 0.062421687 -0.08999909 0.3571384 0.09659635
0.008375871 -0.0050994414 -0.21037404 -0.12980711 -0.05792768 -0.1345806 -0.15947752 -0.12835297
0.022534143 0.06952371 0.07710508 0.09494185 0.06313169 -0.23401688 -0.02524433 0.06310469
-0.05391543 -0.14803551 -0.21093793 -0.2014269 -0.13144551 -0.08419046 -0.034226295 -0.32553825
-0.07648948 0.026709994 0.082137756 0.33127165 0.17685612 -0.011219774 -0.015157324 0.07775435
0.045358784 0.11513337 -0.06070265 0.0066767074 0.034511004 -0.07027239 0.06336229 0.058074147
0.11929275 0.05190602 0.030236708 -0.020506132 -0.028753914 -0.050532702 0.054198965 0.04447156
-0.059647746 0.17903185 0.0017213433 -0.10511855 -0.041979894 -0.024957828 -0.07741005 -0.123012304
-0.036418185 -0.04440473 0.15500334 -0.013464949 -0.018878676 0.153913 0.11044673 0.1101251
-0.05898209 -0.10400617 -0.10746847 -0.060268436 0.066400394 -0.08345095 -0.10341917 -0.06603567
-0.079838164 0.39974618 0.06382353 0.0063658888 -0.17850298 -0.3679253 0.069365405 0.007087054
-0.1646587 -0.05923326 0.022775522 -0.016241372 0.020006875 -0.14522657 -0.123647146 -0.07619853
-0.11259844 -0.20023155 -0.10834969 -0.09321988 -0.13938504 -0.19638307 0.0016309615 -0.016542241
0.10795596 0.22682308 -0.27746615 -0.055489406 0.075841986 0.08788315 0.17162037 -0.044691134
-0.046964336 0.026980555 -0.010393636 0.24986686 -0.10958925 -0.09027659 -0.10471609 -0.09812472
-0.031121945 -0.11626472 -0.059031297 -0.039740153 -0.0029897592 0.14878544 -0.16676378 -0.012004567
0.12653042 0.1366731 0.1583634 -0.22302082 0.073668376 0.12455151 0.18655664 0.42177832
0.042585835 0.027137421 -0.09730169 -0.044167235 -0.043078005 -0.0037328915 0.11178887 -0.023161486
-0.06256328 0.07589775 0.1012266 -0.058382623 0.12289561 0.08845131 -0.06735832 0.18312074
0.17861407 0.11663341 0.09245807 0.11165601 0.2505624 0.19380787 0.10952199 -0.01685039
-0.28384238 0.14274679 0.07348958 0.01131298 0.096405976 0.061891075 -0.024750434 -0.02356952
0.10506217 -0.040748462 -0.020473637 0.079412244 -0.05820669 -0.050236437 0.038182195 0.026935121
-0.01801083 -0.09072605 -0.21091913 -0.08590956 -0.14088348 0.067000456 -0.021091634 -0.10358931
-0.1611371 -0.14727157 -0.087797 -0.0070245513 -0.014063901 -0.0044507487 -0.031081535 -0.06288778
00000000: 52b9 e93c 6cfa c73c 3669 bd3d 7f6e 75bd
00000010: 8481 ff3d 6d6a f93d ba77 3e3d db49 b03d
00000020: 7927 aabc f046 d03c 87f5 f4bd 2e5d 753d
00000030: 5cc2 903b d4f9 4e3d 1ac7 8dbd d88d 87be
00000040: 1f76 32bd 58fd e83d bf60 653d 6efa 9d3d
00000050: 7b7a eabd b171 623b b6cd 6a3b 2c60 20be
00000060: fe6e 4e3e 361f a8bc a78f db3c ad1a 32bd
00000070: fc03 aabd 72c9 86bd 2a4f b9bd d933 a1bd
00000080: 3ae8 30bd 573e b9bd b930 053e 3877 29be
00000090: a065 12be 9e3b d6bc 6937 a93d 044c ff3d
000000a0: 9c77 ab3c 793f 16be 216b e9bd 3de1 13be
000000b0: 1478 153e c9ab 953d a0f3 cdbd 956d 1abe
000000c0: ad3b 70bd 83fd 783e ff1e abbd f407 193e
000000d0: 3478 1dbe 52c3 c83c 8c54 0cbe a246 9e3c
000000e0: c533 16bb 3a1c 5d3d 6f83 263d 5626 6cbd
000000f0: 4425 cc3d dc32 033e 48bb 30bb 031c 233e
00000100: f31c 31be 577d 0c3e b53d bbbd 625f 403e
00000110: e2ad 7f3d 7151 b8bd d8da b63e 4fd4 c53d
00000120: f33a 093c 3719 a7bb 4b6c 57be 28ec 04be
00000130: 9345 6dbd 7fcf 09be 134e 23be f66e 03be
00000140: 8699 b83c 7262 8e3d 45e9 9d3d df70 c23d
00000150: 304b 813d 1fa2 6fbe 32cd cebc 083d 813d
00000160: 6dd6 5cbd 9f96 17be 1d00 58be da42 4ebe
00000170: a799 06be 0c6c acbd df30 0cbd f3ac a6be
00000180: 84a6 9cbd ebce da3c d737 a83d 709c a93e
00000190: c519 353e 25d3 37bc 6d56 78bc ac3d 9f3d
000001a0: 22ca 393d 0bcb eb3d 58a3 78bd 48c8 da3b
000001b0: 695b 0d3d f9ea 8fbd 17c4 813d 28df 6d3d
000001c0: c24f f43d 689b 543d f9b2 f73c 7afc a7bc
000001d0: 548d ebbc 61fb 4ebd bcff 5d3d cf27 363d
000001e0: 3251 74bd 2054 373e b29e e13a 6548 d7bd
000001f0: 1cf3 2bbd 5c74 ccbc 2989 9ebd e0ed fbbd
00000200: 3c2b 15bd bce1 35bd 32b9 1e3e 179c 5cbc
00000210: 74a7 9abc 5f9b 1d3e e531 e23d 4589 e13d
00000220: 3497 71bd 3001 d5bd 6e18 dcbd 09dc 76bd
00000230: eefc 873d 55e8 aabd 6ecd d3bd b63d 87bd
00000240: 3182 a3bd 88ab cc3e e9b5 823d f298 d03b
00000250: 7cc9 36be b460 bcbe 730f 8e3d 853a e83b
00000260: 4a9c 28be 939e 72bd bb93 ba3c a00c 85bc
00000270: 75e5 a33c 46b6 14be b73a fdbd fa0d 9cbd
00000280: 039a e6bd 8009 4dbe 71e6 ddbd 10ea bebd
00000290: f4ba 0ebe a518 49be fdc5 d53a 9883 87bc
000002a0: 0418 dd3d 4f44 683e 0b10 8ebe dc48 63bd
000002b0: 0b53 9b3d 15fc b33d 40bd 2f3e 0d0e 37bd
000002c0: ad5d 40bd 5306 dd3c 124a 2abc 19dd 7f3e
000002d0: 5470 e0bd efe2 b8bd 6475 d6bd 9df5 c8bd
000002e0: 73f3 febc 331c eebd cdca 71bd 92c6 22bd
000002f0: d6ef 43bb 365b 183e 20c4 2abe ceae 44bc
00000300: 3191 013e 08f4 0b3e 042a 223e 925f 64be
00000310: 72df 963d dd14 ff3d b408 3f3e 54f3 d73e
00000320: 7c6e 2e3d 4c4f de3c 1c46 c7bd b4e8 34bd
00000330: 9072 30bd 87a3 74bb 90f1 e43d 28bd bdbc
00000340: 2d21 80bd 4870 9b3d e44f cf3d 9e22 6fbd
00000350: b2b0 fb3d f625 b53d 29f3 89bd 0184 3b3e
00000360: 9be6 363e 7fdd ee3d a85a bd3d e8ab e43d
00000370: b749 803e 9275 463e 114d e03d d409 8abc
00000380: ca53 91be 372c 123e b481 963d 145a 393c
00000390: 7f70 c53d 7f81 7d3d 6cc1 cabc de14 c1bc
000003a0: d62a d73d dce7 26bd 54b8 a7bc e3a2 a23d
000003b0: 236a 6ebd b9c4 4dbd ef64 1c3d 0ba7 dc3c
000003c0: 738b 93bc 94ce b9bd 2ffb 57be 5af1 afbd
000003d0: c243 10be 8937 893d 5dc8 acbc a226 d4bd
000003e0: 2001 25be 5cce 16be eace b3bd 352e e6bb
000003f0: 476c 66bc 96d7 91bb b49e febc 4fcb 80bd

bias f4 [120]
-0.032161344 -0.08706018 -0.32604343 -0.20487662 -0.06204422 -0.004997888 0.13586113 -0.017330347
-0.04999971 -0.15547562 0.17287427 -0.0006952836 0.17707598 0.008871583 0.21723668 0.25675225
0.1054114 0.030655684 0.106708564 -0.052096874 -0.14968899 -0.098940834 0.06515758 -0.11252036
-0.026872879 0.1272369 0.05267356 -0.109484896 0.15079843 0.017534038 -0.1393487 -0.27598658
0.008771262 0.10797468 -0.08413426 -0.10508684 0.20768797 -0.078477174 0.0006611868 0.14009532
0.045945894 0.045469046 -0.033248182 -0.18209258 -0.12440988 -0.09200649 -0.09719403 -0.057208996
-0.0190951 0.041496538 0.12930351 -0.15466739 0.09156755 -0.28850642 -0.021857154 -0.061736133
0.025192836 -0.036797125 -0.12591824 -0.1490967 0.18095748 -0.27940664 -0.031407148 0.27144396
-0.14617836 -0.091943085 -0.21292424 -0.03768971 -0.103049725 0.26442048 -0.09731177 -0.07176196
0.23659979 -0.029182648 -0.033972908 0.071696185 0.13420397 -0.1836314 -0.1414576 -0.10430031
0.016924702 -0.42642975 -0.021676114 -0.25125152 0.06851205 -0.06408279 -0.08117221 -0.0993329
0.30328935 -0.13638793 -0.0041203983 0.012429578 -0.097199224 -0.07444987 -0.067766875 -0.09674284
0.01727299 -0.048436623 -0.1327047 -0.022882205 -0.11271898 0.14317186 -0.051467896 -0.14344527
-0.08204605 0.23862256 0.08894324 -0.14445016 0.35644716 -0.08914772 0.14581029 -0.12887277
0.022481645 0.03974873 -0.028352756 -0.039601363 -0.1915152 0.07138309 -0.23214352 -0.20599747
00000000: 9dbb 03bd 9c4c b2bd 2aef a6be 2dcb 51be
00000010: 1422 7ebd 53c5 a3bb 2e1f 0b3e 5ff8 8dbc
00000020: 7fcc 4cbd 0035 1fbe f405 313e b143 36ba
00000030: 6853 353e 1e5a 113c 4b73 5e3e 0875 833e
00000040: efe1 d73d a121 fb3c 058a da3d 8863 55bd
00000050: 1248 19be 7ea1 cabd 5671 853d 1371 e6bd
00000060: 8324 dcbc 644a 023e 3bc0 573d 9e39 e0bd
00000070: e76a 1a3e 8ba3 8f3c 6db1 0ebe 1d4e 8dbe
00000080: 57b5 0f3c d421 dd3d 954e acbd c537 d7bd
00000090: 28ac 543e a4b8 a0bd 7f53 2d3a 2675 0f3e
000000a0: c331 3c3d c03d 3a3d 3f2f 08bd 7a76 3abe
000000b0: 9bca febd e66d bcbd aa0d c7bd fb53 6abd
000000c0: 546d 9cbc 46f8 293d 2468 043e 2161 1ebe
000000d0: c587 bb3d 1db7 93be c60d b3bc 07df 7cbd
000000e0: 3561 ce3c 95b8 16bd b6f0 00be ceac 18be
000000f0: eb4c 393e 630e 8fbe c8a4 00bd b4fa 8a3e
00000100: c8af 15be a84c bcbd d008 5abe 8660 1abd
00000110: bc0b d3bd 1f62 873e 654b c7bd eff7 92bd
00000120: 3747 723e 7310 efbc 2d27 0bbd 73d5 923d
00000130: c46c 093e df09 3cbe 43da 10be 679b d5bd
00000140: aca5 8a3c 0055 dabe 1b92 b1bc 0aa4 80be
00000150: 0c50 8c3d d63d 83bd 9e3d a6bd 0c6f cbbd
00000160: be48 9b3e 47a9 0bbe 6804 87bb 6ea5 4b3c
00000170: 6310 c7bd 2c79 98bd 5cc9 8abd 1c21 c6bd
00000180: 1680 8d3c 7b65 46bd bee3 07be 7673 bbbc
00000190: 35d9 e6bd a59b 123e 00d0 52bd 51e3 12be
000001a0: c207 a8bd 7959 743e e027 b63d beea 13be
000001b0: 3e80 b63e 1493 b6bd 4b4f 153e 39f7 03be
000001c0: 6d2b b83c 90cf 223d 0a44 e8bc 0a35 22bd
000001d0: 901c 44be 4c31 923d 08b7 6dbe 00f1 52be

weight f4 [84, 120]
-0.05453654 0.19451858 0.13317141 -0.0794608 -0.1022585 -0.07927245 0.02141794 -0.0013121137
0.07520075 -0.06894485 0.0036055825 -0.113168895 -0.016934386 -0.2358531 -0.0038244918 0.018825661
0.05533552 -0.0755676 0.22349174 0.2220475 -0.03157891 0.06948108 -0.05011736 0.04234978
-0.14759186 -0.45621902 0.14194338 0.047703672 0.11688052 -0.069599114 -0.28110507 0.09846559
-0.01214199 0.09880133 -0.06712837 -0.05547453 -0.123805724 -0.06683191 0.071762174 0.045847643
-0.07229991 0.039534647 0.0020089103 0.0771695 0.042426217 -0.0074370555 -0.05912253 0.021719571
0.10351472 0.08882878 0.09019793 0.11346461 -0.01831585 0.078217156 0.13338767 -0.06389611
-0.049207624 -0.1019071 -0.18067653 0.014383651 -0.015035545 0.04963845 -0.031725623 -0.19917591
-0.21847212 0.06613747 0.005404285 0.09910097 0.07515373 -0.19108471 0.08604855 -0.12590213
0.13743888 -0.05979459 0.123962395 0.10674369 0.030406332 0.011114181 0.005314987 -0.047053717
0.08700029 -0.1933118 -0.004900221 -0.06194359 -0.05468849 0.13762623 0.059464917 -0.25422758
-0.09579349 -0.08864122 0.004071299 -0.00814554 -0.02342993 0.028702619 -0.04363426 -0.08452302
0.009329004 0.09279361 -0.037457094 0.10526106 -0.19939 -0.11206828 0.1359055 0.06706426
0.0030184914 -0.13854231 -0.029090364 0.08760823 -0.09448904 0.20073031 0.15779494 -0.018261537
-0.2432049 0.12999165 0.32668063 0.024980936 0.15666322 0.11834269 0.077455714 0.05548616
-0.2603434 -0.13894911 -0.22125237 -0.11506338 -0.0985957 -0.11662718 0.05466928 0.11984467
-0.04998705 -0.51264083 0.1502166 -0.16568467 0.120011695 0.11369002 0.044692982 0.15396978
0.071322806 -0.057023708 -0.044502243 -0.15913492 0.14483725 0.06112177 -0.009421948 -0.23877554
0.08574625 0.06426869 0.18649389 -0.13454701 0.1548624 -0.21465155 -0.107263 -0.074363984
-0.0911635 0.08550484 0.16189834 0.007952892 0.018569767 0.023551552 -0.022941476 -0.116363086
-0.069438815 0.0075813155 -0.19170263 -0.04628342 0.024421412 0.1258782 -0.042405978 -0.21410185
0.023006475 0.21809202 -0.03806592 -0.4554693 0.08071676 -0.03747548 0.12009581 -0.13209926
0.16343062 -0.0026166027 -0.026793571 -0.07806115 0.14471918 -0.2785198 -0.15403417 0.17792347
-0.32135934 -0.2609086 -0.016087655 0.025336577 -0.26027295 0.08557233 -0.07380902 -0.21478003
0.17132488 -0.05004085 -0.0611882 -0.008613398 0.08775635 0.33244076 0.025397638 0.12411965
-0.03004067 -0.2920552 0.089397505 -0.034549654 0.1129385 0.0010004862 -0.061957255 0.21114345
0.11543703 0.16167022 -0.114302516 0.016667914 0.06910809 -0.30017668 -0.16794091 -0.14391646
-0.10926275 -0.11695132 0.057902224 -0.14859556 0.03872736 -0.20330693 -0.265366 0.04844944
-0.030767046 0.15710633 -0.10077367 -0.44464037 0.19303448 0.058565374 0.10073132 -0.2002328
-0.0037651807 -0.089932464 0.01604552 -0.08864404 -0.023967672 0.18967389 -0.04186045 -0.14257433
-0.07184356 -0.076162934 -0.09819446 -0.13755263 0.011739331 -0.033554904 -0.024479315 -0.12486682
-0.07449801 -0.036066487 -0.119118646 0.006013872 -0.056984372 -0.11147499 0.06459369 -0.039905127
00000000: b561 5fbd e12f 473e 165e 083e 58bc a2bd
00000010: e86c d1bd 9859 a2bd ad74 af3c 3bfb abba
00000020: da02 9a3d f532 8dbd a34b 6c3b 18c5 e7bd
00000030: fbb9 8abc 7a83 71be 53a4 7abb 4638 9a3c
00000040: 80a7 623d 30c3 9abd 05db 643e 6b60 633e
00000050: e358 01bd 194c 8e3d dc47 4dbd f776 2d3d
00000060: 5222 17be 8a95 e9be 9b59 113e ed64 433d
00000070: 0e5f ef3d fb89 8ebd 01ed 8fbe 54a8 c93d
00000080: 32ef 46bc 5a58 ca3d 997a 89bd 4339 63bd
00000090: db8d fdbd 2bdf 88bd 0cf8 923d bdca 3b3d
000000a0: fa11 94bd 15ef 213d eca7 033b 0b0b 9e3d
000000b0: 1dc7 2d3d 8bb2 f3bb 772a 72bd 3eed b13c
000000c0: 87ff d33d ddeb b53d b1b9 b83d 2260 e83d
000000d0: 1f0b 96bc 5130 a03d c796 083e f7db 82bd
000000e0: ef8d 49bd abb4 d0bd 4503 39be 68a9 6b3c
000000f0: a657 76bc b051 4b3d baf2 01bd c5f4 4bbe
00000100: 28b7 5fbe 1573 873d 6e16 b13b 73f5 ca3d
00000110: 33ea 993d b6ab 43be 393a b03d 7dec 00be
00000120: c7bc 0c3e 2ceb 74bd ffdf fd3d 709c da3d
00000130: b316 f93c 4118 363c 5829 ae3b 66bb 40bd
00000140: 352d b23d 87f3 45be 0892 a0bb 90b8 7dbd
00000150: 0a01 60bd e4ed 0c3e 7c91 733d 1e2a 82be
00000160: 612f c4bd 8789 b5bd 8868 853b df74 05bc
00000170: 20f0 bfbc c121 eb3c d6b9 32bd 681a adbd
00000180: aed8 183c 940a be3d 9c6c 19bd 1c93 d73d
00000190: e42c 4cbe 0e84 e5bd d02a 0b3e fd58 893d
000001a0: e2d1 453b 09de 0dbe ea4e eebc f26b b33d
000001b0: 7883 c1bd 3f8c 4d3e ff94 213e 3899 95bc
000001c0: b50a 79be 881c 053e af42 a73e d2a4 cc3c
000001d0: 536c 203e a75d f23d 1aa1 9e3d 7545 633d
000001e0: bb4b 85be ad48 0ebe fb8f 62be 59a6 ebbd
000001f0: 8bec c9bd 3bda eebd e5ec 5f3d 1f71 f53d
00000200: 39bf 4cbd 6e3c 03bf 61d2 193e 3ea9 29be
00000210: b1c8 f53d 50d6 e83d fd0f 373d 41aa 1d3e
00000220: b111 923d b191 69bd fc47 36bd 44f4 22be
00000230: 3750 143e d25a 7a3d 845e 1abc 9381 74be
00000240: bb9b af3d 4e9f 833d 41f8 3e3e b1c6 09be
00000250: 4094 1e3e 9ecd 5bbe b4ac dbbd 254c 98bd
00000260: eeb3 babd 291d af3d aec8 253e d94c 023c
00000270: a01f 983c 2fef c03c c3ef bbbc c54f eebd
00000280: f035 8ebd af6c f83b b24d 44be af93 3dbd
00000290: 6a0f c83c 37e6 003e e4b1 2dbd 843d 5bbe
000002a0: 1378 bc3c 8453 5f3e 03eb 1bbd 4633 e9be
000002b0: d44e a53d e47f 19bd cbf4 f53d 0745 07be
000002c0: 5b5a 273e 4f7b 2bbb 317e dbbc 86de 9fbd
000002d0: 4431 143e 269a 8ebe 22bb 1dbe 9231 363e
000002e0: 3689 a4be d095 85be 42ca 83bc a78e cf3c
000002f0: 7f42 85be 8c40 af3d 2f29 97bd 4cef 5bbe
00000300: ca6f 2f3e a2f7 4cbd 7aa0 7abd 361f 0dbc
00000310: 9ab9 b33d ad35 aa3e b50e d03c 7132 fe3d
00000320: da17 f6bc 4288 95be 0a16 b73d f083 0dbd
00000330: 4d4c e73d bf22 833a e4c6 7dbd fd35 583e
00000340: 406a ec3d e18c 253e 7017 eabd 268b 883c
00000350: 8b88 8d3d c2b0 99be b4f8 2bbe d65e 13be
00000360: 26c5 dfbd 2c84 efbd e22a 6d3d 6f29 18be
00000370: 95a0 1e3d b12f 50be 0dde 87be ec72 463d
00000380: 2c0b fcbc 7be0 203e 6d62 cebd e7a7 e3be
00000390: d5aa 453e 3fe2 6f3d 394c ce3d d409 4dbe
000003a0: 40c1 76bb 832e b8bd e571 833c 028b b5bd
000003b0: da57 c4bc df39 423e dd75 2bbd 01ff 11be
000003c0: b722 93bd 50fb 9bbd 2d1a c9bd 99da 0cbe
000003d0: 5356 403c de70 09bd d888 c8bc 2dba ffbd
000003e0: 6a92 98bd 74ba 13bd 7af4 f3bd 0410 c53b
000003f0: 7268 69bd 004d e4bd b249 843d 8f73 23bd

bias f4 [84]
0.060693443 0.2999727 -0.00092944695 -0.0761449 0.34716853 -0.08098582 -0.04094008 0.05823729
-0.06474409 0.09278777 -0.09267196 0.094645545 0.112083524 -0.024664756 -0.079133146 0.057167165
0.07445918 -0.021654306 -0.1216349 0.18573232 -0.13454995 0.048130378 0.11284791 0.005339567
-0.036873747 -0.11906214 0.11435712 0.2208096 0.10627801 0.31315926 0.047342 0.024714656
-0.05761665 0.050982 0.063010536 0.18004788 0.038404837 -0.13457999 0.23431173 -0.10816882
-0.04982453 0.05156498 0.13064267 0.09208579 0.105851986 0.14680783 -0.030924894 0.06616988
0.38138545 0.10004123 -0.10754866 0.14682789 0.05477257 0.011249298 -0.1284646 0.17550336
0.19218741 0.0137234805 -0.1278319 0.0041996012 0.24060284 -0.05185939 0.40495303 -0.0679669
0.10909003 0.18206245 0.06818712 0.3991885 0.25621122 0.38228717 -0.0020152275 -0.012419207
-0.056589067 -0.033007782 0.026882721 -0.15437935 0.01724193 -0.037632704 0.25754318 -0.116232544
0.11016506 0.026263608 0.083682165 -0.021427203
00000000: b099 783d 0696 993e 21a6 73ba dbf1 9bbd
00000010: 13c0 b13e e5db a5bd c9b0 27bd 398a 6e3d
00000020: 8d98 84bd 8407 be3d ccca bdbd 86d5 c13d
00000030: 0c8c e53d be0d cabc 8f10 a2bd 1e28 6a3d
00000040: 0e7e 983d 5f64 b1bc b81b f9bd 9d30 3e3e
00000050: 76c7 09be 5c24 453d ce1c e73d 89f7 ae3b
00000060: ed08 17bd dad6 f3bd 1134 ea3d e91b 623e
00000070: 49a8 d93d 6956 a03e afe9 413d 6476 ca3c
00000080: 70ff 6bbd 80d2 503d ab0b 813d 795e 383e
00000090: 644e 1d3d 56cf 09be 6aef 6f3e 9d87 ddbd
000000a0: ce14 4cbd cd35 533d 31c7 053e 7a97 bc3d
000000b0: edc8 d83d cb54 163e 3456 fdbc 1384 873d
000000c0: f444 c33e 6be2 cc3d 7942 dcbd 0d5a 163e
000000d0: 3459 603d fa4e 383c 398c 03be 27b7 333e
000000e0: c7cc 443e 73d8 603c 5ee6 02be cf9c 893b
000000f0: 9760 763e 836a 54bd 0156 cf3e 3b32 8bbd
00000100: 986a df3d 946e 3a3e b0a5 8b3d 6f62 cc3e
00000110: 1e2e 833e 25bb c33e e811 04bb ee79 4bbc
00000120: f0c9 67bd 2b33 07bd 2739 dc3c 9f15 1ebe
00000130: f33e 8d3c c024 1abd b3dc 833e 540b eebd
00000140: 389e e13d c726 d73c 8e61 ab3d 1a88 afbc

weight f4 [10, 84]
0.12009145 -0.41364187 -0.019750133 0.055193372 0.15926015 -0.10689624 0.14251526 -0.40493166
0.08087981 -0.039167315 -0.14914446 -0.0060659954 -0.13087653 0.033285297 0.02097321 -0.29915118
0.092164 0.12225166 0.15151758 0.06846433 0.20206915 0.04375388 -0.12682582 -0.06314224
0.1879329 0.10596935 0.16216354 -0.26014245 0.08643107 -0.35039437 -0.012882626 0.053194106
0.15579998 -0.03247581 0.08579152 -0.116359666 0.047195204 0.050010864 -0.09675143 -0.07878312
-0.12871632 -0.02069655 -0.08015914 0.19337098 0.23003253 0.10982897 -0.0011590265 -0.33058554
-0.14332116 0.0628077 -0.1634401 0.08378171 0.0353927 -0.23586716 -0.03731124 0.19115362
-0.30259442 0.0067271194 0.1201291 0.0955532 0.059867553 0.091306135 -0.23035306 0.037746772
0.040891342 -0.12268225 -0.16410977 -0.47489786 0.06859368 0.0044748336 0.30772045 -0.057189953
-0.22910681 0.08291055 -0.14609244 0.10886164 -0.07897444 0.09280052 -0.15814604 -0.052855406
0.11887264 -0.10515693 -0.23273385 0.060428955 0.091382354 -0.05457519 -0.07126928 -0.16484615
-0.17568628 -0.12663096 0.07334454 0.058871053 0.17271559 0.14769149 -0.06493046 -0.16066863
0.2751055 0.023012524 -0.08307225 -0.05115043 -0.34620467 0.13412327 0.081784 -0.039429165
0.041454457 -0.19607328 0.07685953 -0.09336656 -0.14993544 0.09022543 -0.18025753 -0.16631801
0.2250601 -0.16312161 -0.2564652 -0.0072789737 0.074322514 0.095032915 -0.01089159 -0.35765558
-0.06596788 0.12828244 0.20762996 -0.14002098 -0.031577613 0.1078026 -0.03396817 -0.09600219
-0.3063647 -0.23033698 0.018902315 0.090901166 -0.14291838 -0.13529387 0.10045834 -0.4534699
0.09855761 -0.19507647 0.0050849523 -0.15475303 0.066781715 0.023233907 0.1297046 0.11834306
0.011913149 -0.019891776 -0.1786985 -0.07852436 0.09150005 -0.19363357 0.25660333 -0.21518488
-0.32609308 -0.2823318 -0.053594176 0.14965454 0.23640378 0.1379215 -0.33429325 0.09360255
-0.2189479 0.1150759 -0.07861376 -0.1890217 0.111927904 -0.071432054 -0.20197737 -0.0345913
-0.2350339 0.11187411 0.08411801 -0.10779403 0.19385691 -0.08519283 0.03568623 -0.13619247
0.090732 0.07762783 -0.02446988 0.06760251 -0.24297152 0.19410636 -0.049226943 -0.16023172
0.052815054 0.014223085 0.028798375 -0.34532443 0.24121518 0.21843956 -0.15804224 0.15639715
0.15465249 0.12998839 -0.17278868 0.045868773 -0.04458394 -0.05337228 -0.12202491 -0.03520427
-0.06046112 0.091699205 -0.1802445 -0.068255074 0.05958313 0.101861656 -0.20288993 -0.111633316
0.2838895 -0.0059211953 0.15988363 0.20279163 -0.14420825 0.1422745 0.0008690394 -0.12851901
0.071817644 0.018225912 -0.25321493 0.23927031 -0.14805289 -0.24177602 0.015962202 0.22250071
0.16391931 0.010671575 -0.31303746 0.11509046 -0.13146862 -0.084768526 0.078682505 -0.10937632
0.22573237 0.03695512 -0.044967894 -0.14394777 0.08415777 -0.044093817 -0.21639666 0.075027525
-0.1725484 -0.21837775 0.28040045 -0.15267622 -0.14887461 -0.2482456 0.20298283 -0.0037287956
-0.20325927 0.0468839 0.15464944 0.023030382 -0.02970869 -0.23264648 -0.05503922 0.08031008
00000000: 82f2 f53d dec8 d3be 08cb a1bc 7212 623d
00000010: 1815 233e 6aec dabd 85ef 113e 3453 cfbe
00000020: 50a4 a53d e86d 20bd 53b9 18be 42c5 c6bb
00000030: 7f04 06be 2a56 083d 02d0 ab3c 582a 99be
00000040: 7bc0 bc3d 145f fa3d 6d27 1b3e 0737 8c3d
00000050: 37eb 4e3e 4537 333d a1de 01be b850 81bd
00000060: 7b71 403e 7506 d93d 330e 263e 6431 85be
00000070: c602 b13d e466 b3be a611 53bc 10e2 593d
00000080: 088a 1f3e 5b05 05bd 77b3 af3d fa4d eebd
00000090: c24f 413d 31d8 4c3d 9d25 c6bd 0b59 a1bd
000000a0: 36ce 03be d08b a9bc 7a2a a4bd 0b03 463e
000000b0: a68d 6b3e 03ee e03d 7aea 97ba 8242 a9be
000000c0: c8c2 12be 53a1 803d d75c 27be bf95 ab3d
000000d0: f0f7 103d 2987 71be acd3 18bd c6bd 433e
000000e0: a8ed 9abe 2b6f dc3b 3f06 f63d 65b1 c33d
000000f0: ae37 753d b6fe ba3d ace1 6bbe 5c9c 1a3d
00000100: ae7d 273d d540 fbbd 640c 28be d025 f3be
00000110: d87a 8c3d a0a1 923b 898d 9d3e 0340 6abd
00000120: fa9a 6abe 02cd a93d 4299 15be daf2 de3d
00000130: 5abd a1bd 330e be3d 09f1 21be e97e 58bd
00000140: 8073 f33d 845c d7bd c851 6ebe 5a84 773d
00000150: ac26 bb3d 3c8a 5fbd a1f5 91bd 6ecd 28be
00000160: 1be7 33be 8cab 01be aa35 963d c622 713d
00000170: 5bdc 303e 703c 173e 43fa 84bd 5186 24be
00000180: a1da 8c3e c384 bc3c c921 aabd 1d83 51bd
00000190: bd41 b1be 9c57 093e 5f7e a73d 7a80 21bd
000001a0: 26cc 293d 6fc7 48be 8768 9d3d f836 bfbd
000001b0: ad88 19be 1cc8 b83d 6e95 38be 454f 2abe
000001c0: 2876 663e 5a09 27be 684f 83be 7584 eebb
000001d0: 6736 983d 9ea0 c23d a472 32bc a21e b7be
000001e0: 2b1a 87bd 795c 033e f39c 543e a961 0fbe
000001f0: 8757 01bd 9cc7 dc3d 3522 0bbd cc9c c4bd
00000200: d5db 9cbe 75dd 6bbe 07d9 9a3c 642a ba3d
00000210: 3259 12be 7a8a 0abe 1abd cd3d 352d e8be
00000220: 92d8 c93d 20c2 47be ac9f a63b 9477 1ebe
00000230: dac4 883d 0955 be3c 48d1 043e d95d f23d
00000240: 5e2f 433c 14f4 a2bc bdfc 36be 61d1 a0bd
00000250: 6164 bb3d e147 46be 8361 833e 6d59 5cbe
00000260: acf5 a6be cb8d 90be 9185 5bbd 0a3f 193e
00000270: d513 723e 4b3b 0d3e 7c28 abbe b2b2 bf3d
00000280: e133 60be eaac eb3d 4000 a1bd e88e 41be
00000290: 753a e53d f84a 92bd 28d3 4ebe 9baf 0dbd
000002a0: baac 70be 411e e53d 1046 ac3d 1ec3 dcbd
000002b0: 6d82 463e 9479 aebd b92b 123d 0a76 0bbe
000002c0: b3d1 b93d 57fb 9e3d 0f75 c8bc 2f73 8a3d
000002d0: 87cd 78be d1c3 463e 31a2 49bd c913 24be
000002e0: 9954 583d f107 693c 92ea eb3c 5dce b0be
000002f0: 1d01 773e 9fae 5f3e d3d5 21be 9326 203e
00000300: 395d 1e3e ad1b 053e 84ef 30be e5e0 3b3d
00000310: a69d 36bd e49c 5abd 32e8 f9bd 5a32 10bd
00000320: 14a6 77bd cbcc bb3d 0492 38be 51c9 8bbd
00000330: 710d 743d d89c d03d 61c2 4fbe 02a0 e4bd
00000340: f759 913e 9606 c2bb 89b8 233e 9ca8 4f3e
00000350: 54ab 13be 68b0 113e 3fd0 633a 7d9a 03be
00000360: 2115 933d 824e 953c 63a5 81be 4703 753e
00000370: 2d9b 17be 2294 77be 2ac3 823c 3ad7 633e
00000380: 77da 273e d4d7 2e3c 7246 a0be 8cb4 eb3d
00000390: b69f 06be 1f9b adbd 4b24 a13d b100 e0bd
000003a0: 6326 673e 405e 173d 4130 38bd 0b67 13be
000003b0: e95a ac3d b89b 34bd 1697 5dbe 08a8 993d
000003c0: 87b0 30be 6b9e 5fbe a690 8f3e 2857 1cbe
000003d0: 9672 18be 1834 7ebe bbda 4f3e cf5e 74bb
000003e0: 3323 50be 5509 403d 6c5c 1e3e 36aa bc3c
000003f0: a35f f3bc e13a 6ebe ce70 61bd 9c79 a43d

bias f4 [10]
-0.14762063 -0.10446032 0.064137265 0.06857183 0.16817573 -0.020576086 -0.03165216 -0.03585352
0.012155821 -0.03627276
00000000: dd29 17be 4bef d5bd 665a 833d 636f 8c3d
00000010: 4236 2c3e 2e8f a8bc b2a5 01bd 24db 12bd
00000020: 3529 473c bf92 14bd
